…
=====================================
INFO:root:cuda available: True
INFO:root:# cuda devices: 1
INFO:root:Reading data from "../data/", dataset = "Office" 
INFO:root:Counting dataset statistics...
INFO:root:"# user": 4906, "# item": 2421, "# entry": 53258
INFO:root:Appending history info...
INFO:root:Constructing relation triplets...
INFO:root:Item-item relations:['r_complement', 'r_substitute']
INFO:root:Attribute-based relations:['i_category', 'i_brand']
INFO:root:"# relation": 10, "# triplet": 60706
INFO:root:Save corpus to ../data/Office/DFTReader_5.pkl
INFO:root:#params: 4336148
INFO:root:KDAPlus(
  (user_embeddings): Embedding(4906, 64)
  (item_embeddings): Embedding(2421, 1536, padding_idx=0)
  (project_layer_1): Linear(in_features=1536, out_features=64, bias=True)
  (project_layer_2): Linear(in_features=128, out_features=10, bias=True)
  (entity_embeddings): Embedding(2803, 64)
  (relation_embeddings): Embedding(10, 64)
  (relational_dynamic_aggregation): RelationalDynamicAggregation(
    (relation_embeddings): Embedding(10, 64)
    (freq_real): Embedding(10, 33)
    (freq_imag): Embedding(10, 33)
  )
  (attn_head): MultiHeadAttention(
    (q_linear): Linear(in_features=64, out_features=64, bias=False)
    (k_linear): Linear(in_features=64, out_features=64, bias=False)
    (v_linear): Linear(in_features=64, out_features=64, bias=False)
  )
  (W1): Linear(in_features=64, out_features=64, bias=True)
  (W2): Linear(in_features=64, out_features=64, bias=True)
  (dropout_layer): Dropout(p=0, inplace=False)
  (layer_norm): LayerNorm((64,), eps=1e-05, elementwise_affine=True)
  (item_bias): Embedding(2422, 1)
)
INFO:root:Test Before Training: (HR@10:0.1032,HR@5:0.0542,HR@50:0.5011,NDCG@10:0.0475,NDCG@5:0.0319,NDCG@50:0.1305)
INFO:root:Optimizer: Adam
INFO:root:all_losses: [4.773428   0.6956062  0.69312584]
INFO:root:Epoch 1     loss=4.7734 [6.1 s]	 dev=(HR@5:0.1068,NDCG@5:0.0626) test=(HR@5:0.0673,NDCG@5:0.0390) [2.2 s] 
INFO:root:Save model to ../model/KDAPlus/KDAPlus_Office_2019_lr=0.001_l2=1...
…
