…
 num_heads           | 4            
 num_layers          | 5            
 num_neg             | 1            
 num_workers         | 5            
 only_predict        | 0            
 optimizer           | Adam         
 plm_name            | feat.GPT     
 plm_size            | 1536         
 pooling             | average      
 random_seed         | 2019         
 topk                | [5,10,50]    
=====================================
INFO:root:cuda available: True
INFO:root:# cuda devices: 1
INFO:root:Load corpus from ../data/Office/KGReader_5.pkl
INFO:root:#params: 517174
INFO:root:RCF(
  (user_embeddings): Embedding(4906, 64)
  (entity_embeddings): Embedding(2803, 64)
  (relation_embeddings): Embedding(10, 64)
  (relational_dynamic_aggregation): RelationalDynamicAggregation(
    (relation_embeddings): Embedding(10, 64)
  )
  (attn_head): MultiHeadAttention(
    (q_linear): Linear(in_features=64, out_features=64, bias=False)
    (k_linear): Linear(in_features=64, out_features=64, bias=False)
    (v_linear): Linear(in_features=64, out_features=64, bias=False)
  )
  (W1): Linear(in_features=64, out_features=64, bias=True)
  (W2): Linear(in_features=64, out_features=64, bias=True)
  (dropout_layer): Dropout(p=0, inplace=False)
  (layer_norm): LayerNorm((64,), eps=1e-05, elementwise_affine=True)
  (item_bias): Embedding(2422, 1)
)
INFO:root:Test Before Training: (HR@10:0.0934,HR@5:0.0406,HR@50:0.5111,NDCG@10:0.0393,NDCG@5:0.0225,NDCG@50:0.1260)
INFO:root:Optimizer: Adam
INFO:root:all_losses: [1.4405068 0.        0.6931472]
INFO:root:Epoch 1     loss=1.4405 [4.7 s]	 dev=(HR@5:0.1174,NDCG@5:0.0716) test=(HR@5:0.0775,NDCG@5:0.0456) [2.3 s] 
INFO:root:Save model to ../model/RCF/RCF_Office_2019_lr=0.0001_l2=1e-06_nu...
…
